[START]
2019-12-06-02-20-58
==============================
HmmVal (
  (goal_encoder): MlpGoalEncoder(
    (cnt_enc): Embedding(12, 64)
    (val_enc): Embedding(12, 64)
    (encoder): Sequential(
      (0): Tanh()
      (1): Linear(in_features=192, out_features=64, bias=True)
    )
  ), parameters=13888
  (embedding): Embedding(2542, 256, padding_idx=0), parameters=650752
  (utt_encoder): RnnUttEncoder(
    (embedding): Embedding(2542, 256, padding_idx=0)
    (rnn): EncoderRNN(
      (input_dropout): Dropout(p=0.3, inplace=False)
      (rnn): GRU(321, 128, batch_first=True, dropout=0.3, bidirectional=True)
    )
  ), parameters=997120
  (ctx_encoder): EncoderRNN(
    (input_dropout): Dropout(p=0.0, inplace=False)
    (rnn): GRU(256, 256, batch_first=True, dropout=0.3)
  ), parameters=394752
  (connector): IdentityConnector(), parameters=0
  (decoder): DecoderRNN(
    (input_dropout): Dropout(p=0.3, inplace=False)
    (rnn): GRU(384, 256, batch_first=True, dropout=0.3)
    (embedding): Embedding(2542, 256, padding_idx=0)
    (project): Linear(in_features=256, out_features=2542, bias=True)
  ), parameters=1797102
  (nll): NLLEntropy(), parameters=0
  (z_embedding): Embedding(128, 256), parameters=32768
  (book_emb): Embedding(11, 32), parameters=352
  (hat_emb): Embedding(11, 32), parameters=352
  (ball_emb): Embedding(11, 32), parameters=352
  (res_layer): ResidualLayer(
    (lin1): Linear(in_features=96, out_features=64, bias=True)
    (lin2): Linear(in_features=64, out_features=64, bias=True)
    (layer_norm): LayerNorm((64,), eps=1e-05, elementwise_affine=True)
  ), parameters=10496
  (w_pz0): Linear(in_features=64, out_features=64, bias=False), parameters=4096
  (prior_res_layer): ResidualLayer(
    (lin1): Linear(in_features=256, out_features=64, bias=True)
    (lin2): Linear(in_features=64, out_features=64, bias=True)
    (layer_norm): LayerNorm((64,), eps=1e-05, elementwise_affine=True)
  ), parameters=20736
) Total Parameters=3922766
***** Training Begins at 2019-12-06 02-21-02 *****
***** Epoch 0/100 *****
100/400-(0.000): Train nll PPL 48.069
200/400-(0.000): Train nll PPL 21.661
300/400-(0.000): Train nll PPL 16.589
0/400-(0.000): Train nll PPL 16.046
Checkpoint step at 2019-12-06 02-21-12
==== Evaluating Model ====
Train nll PPL 22.945
…
