[START]
2019-12-03-22-22-21
==============================
HRED (
  (goal_encoder): MlpGoalEncoder(
    (cnt_enc): Embedding(12, 64)
    (val_enc): Embedding(12, 64)
    (encoder): Sequential(
      (0): Tanh()
      (1): Linear(in_features=192, out_features=64, bias=True)
    )
  ), parameters=13888
  (embedding): Embedding(2542, 256, padding_idx=0), parameters=650752
  (utt_encoder): RnnUttEncoder(
    (embedding): Embedding(2542, 256, padding_idx=0)
    (rnn): EncoderRNN(
      (input_dropout): Dropout(p=0.3, inplace=False)
      (rnn): GRU(321, 128, batch_first=True, dropout=0.3, bidirectional=True)
    )
  ), parameters=997120
  (ctx_encoder): EncoderRNN(
    (input_dropout): Dropout(p=0.0, inplace=False)
    (rnn): GRU(256, 256, batch_first=True, dropout=0.3)
  ), parameters=394752
  (connector): IdentityConnector(), parameters=0
  (decoder): DecoderRNN(
    (input_dropout): Dropout(p=0.3, inplace=False)
    (rnn): GRU(320, 256, batch_first=True, dropout=0.3)
    (embedding): Embedding(2542, 256, padding_idx=0)
    (attention): Attention(
      (linear_out): Linear(in_features=512, out_features=256, bias=True)
      (dec_w): Linear(in_features=256, out_features=256, bias=True)
      (attn_w): Linear(in_features=256, out_features=256, bias=True)
      (query_w): Linear(in_features=256, out_features=1, bias=True)
    )
    (project): Linear(in_features=256, out_features=2542, bias=True)
  ), parameters=2011119
  (nll): NLLEntropy(), parameters=0
) Total Parameters=4067631
***** Training Begins at 2019-12-03 22-22-24 *****
***** Epoch 0/50 *****
100/400-(0.000): Train nll PPL 38.121
200/400-(0.000): Train nll PPL 14.114
300/400-(0.000): Train nll PPL 10.529
0/400-(0.000): Train nll PPL 9.787
Checkpoint step at 2019-12-03 22-22-50
==== Evaluating Model ====
…
