[START]
2019-12-03-23-44-50
==============================
CatHRED (
  (goal_encoder): MlpGoalEncoder(
    (cnt_enc): Embedding(12, 64)
    (val_enc): Embedding(12, 64)
    (encoder): Sequential(
      (0): Tanh()
      (1): Linear(in_features=192, out_features=64, bias=True)
    )
  ), parameters=13888
  (embedding): Embedding(2542, 256, padding_idx=0), parameters=650752
  (utt_encoder): RnnUttEncoder(
    (embedding): Embedding(2542, 256, padding_idx=0)
    (rnn): EncoderRNN(
      (input_dropout): Dropout(p=0.5, inplace=False)
      (rnn): GRU(320, 128, batch_first=True, dropout=0.5, bidirectional=True)
    )
  ), parameters=996352
  (ctx_encoder): EncoderRNN(
    (input_dropout): Dropout(p=0.0, inplace=False)
    (rnn): GRU(256, 256, batch_first=True, dropout=0.5)
  ), parameters=394752
  (c2z): Hidden2Discrete(
    (p_h): Linear(in_features=256, out_features=200, bias=True)
  ), parameters=51400
  (xc2z): Hidden2Discrete(
    (p_h): Linear(in_features=512, out_features=200, bias=True)
  ), parameters=102600
  (gumbel_connector): GumbelConnector(), parameters=0
  (z_embedding): Linear(in_features=200, out_features=256, bias=False), parameters=51200
  (decoder): DecoderRNN(
    (input_dropout): Dropout(p=0.5, inplace=False)
    (rnn): GRU(320, 256, batch_first=True, dropout=0.5)
    (embedding): Embedding(2542, 256, padding_idx=0)
    (project): Linear(in_features=256, out_features=2542, bias=True)
  ), parameters=1747950
  (nll): NLLEntropy(), parameters=0
  (cat_kl_loss): CatKLLoss(), parameters=0
  (entropy_loss): Entropy(), parameters=0
) Total Parameters=4008894
***** Training Begins at 2019-12-03 23-44-52 *****
***** Epoch 0/100 *****
100/400-(0.000): Train nll PPL 37.507 mi 0.002 pi_kl 0.002 pi_h 2.993
200/400-(0.000): Train nll PPL 12.432 mi 0.024 pi_kl 0.001 pi_h 2.947
…
